…
lab":{"base_uri":"https://localhost:8080/"},"executionInfo":{"status":"ok","timestamp":1688248882965,"user_tz":-60,"elapsed":1288432,"user":{"displayName":"yano mano","userId":"03273338585759080813"}},"outputId":"a1abda9e-6096-47d8-a4ee-80b594f23086"},"execution_count":null,"outputs":[{"output_type":"stream","name":"stdout","text":["Model: \"sequential\"\n","_________________________________________________________________\n"," Layer (type)                Output Shape              Param #   \n","=================================================================\n"," dense (Dense)               (None, 68, 32)            64        \n","                                                                 \n"," conv1d (Conv1D)             (None, 66, 64)            6208      \n","                                                                 \n"," max_pooling1d (MaxPooling1D  (None, 33, 64)           0         \n"," )                                                               \n","                                                                 \n"," lstm (LSTM)                 (None, 33, 64)            33024     \n","                                                                 \n"," dropout (Dropout)           (None, 33, 64)            0         \n","                                                                 \n"," flatten (Flatten)           (None, 2112)              0         \n","                                                                 \n"," dense_1 (Dense)             (None, 6)                 12678     \n","                                                                 \n","=================================================================\n","Total params: 51,974\n","Trainable params: 51,974\n","Non-trainable params: 0\n","_________________________________________________________________\n","Epoch 1/30\n","6677/6677 [==============================] - 56s 6ms/step - loss: 0.0613 - accuracy
…
s://localhost:8080/"},"id":"VLH_U6puKH4G","executionInfo":{"status":"ok","timestamp":1688250430681,"user_tz":-60,"elapsed":1525768,"user":{"displayName":"yano mano","userId":"03273338585759080813"}},"outputId":"b3072c85-5de3-49ea-aba8-841bfdef9a51"},"execution_count":null,"outputs":[{"output_type":"stream","name":"stdout","text":["Model: \"sequential_1\"\n","_________________________________________________________________\n"," Layer (type)                Output Shape              Param #   \n","=================================================================\n"," dense_2 (Dense)             (None, 68, 32)            64        \n","                                                                 \n"," dense_3 (Dense)             (None, 68, 128)           4224      \n","                                                                 \n"," lstm_1 (LSTM)               (None, 128)               131584    \n","                                                                 \n"," dense_4 (Dense)             (None, 64)                8256      \n","                                                                 \n"," dense_5 (Dense)             (None, 128)               8320      \n","                                                                 \n"," dropout_1 (Dropout)         (None, 128)               0         \n","                                                                 \n"," dense_6 (Dense)             (None, 6)                 774       \n","                                                                 \n","=================================================================\n","Total params: 153,222\n","Trainable params: 153,222\n","Non-trainable params: 0\n","_________________________________________________________________\n","Epoch 1/30\n","6677/6677 [==============================] - 54s 7ms/step - loss: 0.0881 - accu
…
s://localhost:8080/"},"id":"vm0JXC2eeFh6","executionInfo":{"status":"ok","timestamp":1688251818410,"user_tz":-60,"elapsed":1345363,"user":{"displayName":"yano mano","userId":"03273338585759080813"}},"outputId":"e2433b77-6c3e-492c-9f5d-209da9b03def"},"execution_count":null,"outputs":[{"output_type":"stream","name":"stdout","text":["Model: \"sequential_2\"\n","_________________________________________________________________\n"," Layer (type)                Output Shape              Param #   \n","=================================================================\n"," dense_7 (Dense)             (None, 68, 32)            64        \n","                                                                 \n"," conv1d_1 (Conv1D)           (None, 66, 128)           12416     \n","                                                                 \n"," max_pooling1d_1 (MaxPooling  (None, 33, 128)          0         \n"," 1D)                                                             \n","                                                                 \n"," lstm_2 (LSTM)               (None, 33, 128)           131584    \n","                                                                 \n"," dropout_2 (Dropout)         (None, 33, 128)           0         \n","                                                                 \n"," flatten_1 (Flatten)         (None, 4224)              0         \n","                                                                 \n"," dense_8 (Dense)             (None, 128)               540800    \n","                                                                 \n"," dense_9 (Dense)             (None, 6)                 774       \n","                                                                 \n","=================================================================\n","Total params: 685,638\n","Trainable params: 685,638\n","Non-trainable params: 0\n","_________________________________________________________________\n","Epoch 1/30\n","6677/6677 [==============================] - 47s 6ms/step - loss: 0.0491 - accu
…
